…
        },
        "id": "5UG8j_4r7kSu",
        "outputId": "fc4b0702-4d17-4ffc-e634-ed6f822f235a"
      },
      "source": [
        "model.summary()"
      ],
      "execution_count": 18,
      "outputs": [
        {
          "output_type": "stream",
          "text": [
            "Model: \"sequential\"\n",
            "_________________________________________________________________\n",
            "Layer (type)                 Output Shape              Param #   \n",
            "=================================================================\n",
            "lstm (LSTM)                  (None, 30, 128)           66560     \n",
            "_________________________________________________________________\n",
            "dropout (Dropout)            (None, 30, 128)           0         \n",
            "_________________________________________________________________\n",
            "lstm_1 (LSTM)                (None, 64)                49408     \n",
            "_________________________________________________________________\n",
            "dropout_1 (Dropout)          (None, 64)                0         \n",
            "_________________________________________________________________\n",
            "repeat_vector (RepeatVector) (None, 30, 64)            0         \n",
            "_________________________________________________________________\n",
            "lstm_2 (LSTM)                (None, 30, 64)            33024     \n",
            "_________________________________________________________________\n",
            "dropout_2 (Dropout)          (None, 30, 64)            0         \n",
            "_________________________________________________________________\n",
            "lstm_3 (LSTM)                (None, 128)               98816     \n",
            "_________________________________________________________________\n",
            "dropout_3 (Dropout)          (None, 128)               0         \n",
            "_________________________________________________________________\n",
            "dense (Dense)                (None, 1)                 129       \n",
            "=================================================================\n",
            "Total params: 247,937\n",
            "Trainable params: 247,937\n",
            "Non-trainable params: 0\n",
            "_________________________________________________________________\n"
          ],
          "name": "stdout"
        }
      ]
    },
    {
      "cell_type": "code",
      "metadata": {
…
