…
        },
        "id": "5UG8j_4r7kSu",
        "outputId": "2774c8a7-5b89-43c7-ca1a-528e7df46d69"
      },
      "source": [
        "model.summary()"
      ],
      "execution_count": 18,
      "outputs": [
        {
          "output_type": "stream",
          "text": [
            "Model: \"sequential\"\n",
            "_________________________________________________________________\n",
            "Layer (type)                 Output Shape              Param #   \n",
            "=================================================================\n",
            "dense (Dense)                (None, 30, 256)           512       \n",
            "_________________________________________________________________\n",
            "dense_1 (Dense)              (None, 30, 128)           32896     \n",
            "_________________________________________________________________\n",
            "dense_2 (Dense)              (None, 30, 64)            8256      \n",
            "_________________________________________________________________\n",
            "dense_3 (Dense)              (None, 30, 32)            2080      \n",
            "_________________________________________________________________\n",
            "flatten (Flatten)            (None, 960)               0         \n",
            "_________________________________________________________________\n",
            "repeat_vector (RepeatVector) (None, 30, 960)           0         \n",
            "_________________________________________________________________\n",
            "dense_4 (Dense)              (None, 30, 32)            30752     \n",
            "_________________________________________________________________\n",
            "dense_5 (Dense)              (None, 30, 64)            2112      \n",
            "_________________________________________________________________\n",
            "dense_6 (Dense)              (None, 30, 128)           8320      \n",
            "_________________________________________________________________\n",
            "flatten_1 (Flatten)          (None, 3840)              0         \n",
            "_________________________________________________________________\n",
            "dense_7 (Dense)              (None, 1)                 3841      \n",
            "=================================================================\n",
            "Total params: 88,769\n",
            "Trainable params: 88,769\n",
            "Non-trainable params: 0\n",
            "_________________________________________________________________\n"
          ],
          "name": "stdout"
        }
      ]
    },
    {
      "cell_type": "code",
      "metadata": {
…
