…
        },
        "id": "5UG8j_4r7kSu",
        "outputId": "85517bce-e0d2-4fb5-92dd-bfd2d99df0b8"
      },
      "source": [
        "model.summary()"
      ],
      "execution_count": 19,
      "outputs": [
        {
          "output_type": "stream",
          "text": [
            "Model: \"sequential\"\n",
            "_________________________________________________________________\n",
            "Layer (type)                 Output Shape              Param #   \n",
            "=================================================================\n",
            "gru (GRU)                    (None, 30, 128)           50304     \n",
            "_________________________________________________________________\n",
            "dropout (Dropout)            (None, 30, 128)           0         \n",
            "_________________________________________________________________\n",
            "gru_1 (GRU)                  (None, 64)                37248     \n",
            "_________________________________________________________________\n",
            "dropout_1 (Dropout)          (None, 64)                0         \n",
            "_________________________________________________________________\n",
            "repeat_vector (RepeatVector) (None, 30, 64)            0         \n",
            "_________________________________________________________________\n",
            "gru_2 (GRU)                  (None, 30, 64)            24960     \n",
            "_________________________________________________________________\n",
            "dropout_2 (Dropout)          (None, 30, 64)            0         \n",
            "_________________________________________________________________\n",
            "gru_3 (GRU)                  (None, 128)               74496     \n",
            "_________________________________________________________________\n",
            "dropout_3 (Dropout)          (None, 128)               0         \n",
            "_________________________________________________________________\n",
            "dense (Dense)                (None, 1)                 129       \n",
            "=================================================================\n",
            "Total params: 187,137\n",
            "Trainable params: 187,137\n",
            "Non-trainable params: 0\n",
            "_________________________________________________________________\n"
          ],
          "name": "stdout"
        }
      ]
    },
    {
      "cell_type": "code",
      "metadata": {
…
